data.pth (torch, 6359 bytes, 6 tensors)

l1.weight f4 [8, 83]
0.463654 -0.026141066 -0.29482603 0.4451495 0.5907927 -0.50469553 -0.3821086 0.5538252
-0.23977122 0.3608006 1.0536966 -0.2829268 0.6495839 0.6652863 0.5196156 -0.14595985
-0.37394404 -0.39917028 -0.38794377 0.058516137 0.6223383 -0.6318827 -0.3664312 -0.3560447
0.06824448 0.085911505 0.0051946985 0.5290598 -0.20110674 -0.03857029 -0.23088612 0.6638811
-0.34862652 -0.4847839 0.5729785 -0.5678241 0.46990418 -0.6314999 -0.5835895 -0.68605083
-0.12092747 -0.29406643 0.61334974 -0.46544945 0.26361167 -0.52262694 0.30390456 0.03288559
0.25948083 0.9788887 -0.56962615 0.5348213 -0.35327396 -0.2031889 -0.085768156 0.3237102
0.7783964 0.34815022 -0.28832456 -0.61915475 -0.51535785 -0.08210528 -0.12059358 -0.27530423
0.35167313 -0.10034628 0.47732836 -0.031289667 -0.57989085 -0.07456017 -0.56454706 0.76350695
0.7527837 -0.19354896 -0.1657807 0.81687224 0.42356855 0.21712504 0.6859638 0.0017981176
0.4101278 -0.05718308 0.2952433 0.3513335 0.023178793 0.27496016 -0.19886012 -0.2047385
0.64100826 0.41823146 -0.17180306 0.2738267 -0.16937652 -0.57599723 0.37576482 0.42843738
-0.4961524 -0.30863276 0.06744356 0.4545745 0.18343411 0.38119456 0.52412164 -0.5692874
0.58030814 0.30207226 0.22320844 -0.19942436 -0.23385079 -0.13249901 -0.24744086 -0.07074267
-0.17178717 0.4447842 -0.5184405 0.32642147 0.6966301 -0.04155146 0.62512654 0.19525173
0.51345384 0.53747684 0.14871366 0.21776606 0.41485363 -0.23294328 -0.25023276 -0.22054793
-0.12351307 -0.29662114 -0.10772687 0.23699403 0.5603725 0.57531995 0.38583028 0.37291312
-0.19441327 -0.057729084 -0.028944809 0.7216986 -0.065132305 0.2672757 0.5628214 0.5827463
0.17884094 0.26139915 0.3141947 -0.28912812 0.23909813 -0.18013838 -0.19189999 0.5749989
-0.15710852 0.69524705 0.5701392 -0.5740714 -0.29132482 -0.15300171 0.63345945 0.2990093
-0.114005566 -0.21532482 -0.13002829 -0.12604243 0.15547065 0.05528407 0.21863823 -0.22350627
0.4786284 -0.14196396 -0.18123363 -0.43180993 -0.18088849 -0.14018169 -0.5079332 -0.025913542
-0.46180066 0.32276064 0.35298443 0.7738312 0.6527358 0.33759886 0.27808833 0.06305426
0.2828718 -0.46202266 0.91489226 0.3300006 -0.30101562 0.5564218 0.99217165 0.24327369
0.84254426 0.5302263 -0.16701749 0.6762982 -0.09728619 0.7005534 0.19530225 -0.42017514
-0.21607639 -0.38955927 0.1284735 -0.38972047 -0.39310983 0.29729575 0.6848037 -0.19074023
-0.10465164 -0.19512846 -0.09124862 -0.12971865 0.46965533 0.87448967 0.087495945 -0.008001335
-0.38138714 0.1960125 0.47569895 -0.13019711 0.6102286 -0.09183695 0.48446867 -0.015770942
-0.101826705 0.5972459 -0.41844946 0.32057253 0.20505817 0.49731994 0.64509386 -0.0457045
-0.23977758 0.7817539 -0.3847021 -0.054476198 -0.3875657 0.4353008 0.69156426 0.9644305
-0.11233355 0.33145732 0.16020873 -0.08281691 -0.32914972 0.71172816 -0.24845728 0.2075323
-0.13582322 0.356241 -0.28599304 0.23416223 -0.13590369 -0.2266499 0.54460126 0.45714962
00000000: 0f64 ed3e ca25 d6bc 70f3 96be a3ea e33e
00000010: 313e 173f ba33 01bf bda3 c3be 7dc7 0d3f
00000020: 9686 75be dbba b83e 88df 863f c8db 90be
00000030: 214b 263f 3450 2a3f 8705 053f 8076 15be
00000040: 9875 bfbe 0c60 ccbe 91a0 c6be 9eae 6f3d
00000050: 9051 1f3f 11c3 21bf df9c bbbe 7e4b b6be
00000060: c3c3 8b3d 5ff2 af3d 4a38 aa3b 7770 073f
00000070: edee 4dbe e1fb 1dbd 696d 6cbe 1df4 293f
00000080: 2d7f b2be 9835 f8be b8ae 123f ec5c 11bf
00000090: 4897 f03e faa9 21bf 1f66 15bf 07a1 2fbf
000000a0: d2a8 f7bd e08f 96be 7d04 1d3f 644f eebe
000000b0: 1cf8 863e e1ca 05bf 6199 9b3e 0ab3 063d
000000c0: acda 843e 7398 7a3f 05d3 11bf 0cea 083f
000000d0: 53e0 b4be c010 50be 37a7 afbd 58bd a53e
000000e0: fd44 473f bf40 b23e 479f 93be ed80 1ebf
000000f0: 7eee 03bf d026 a8bd c4f9 f6bd adf4 8cbe
00000100: 800e b43e 5a82 cdbd 6264 f43e 9829 00bd
00000110: ba73 14bf 01b3 98bd 2886 10bf 3175 433f
00000120: 6fb6 403f b331 46be 6ac2 29be 8a1e 513f
00000130: fadd d83e 0756 5e3e 539b 2f3f d1ae eb3a
00000140: 45fc d13e ce38 6abd 212a 973e fce1 b33e
00000150: 74e1 bd3c 94c7 8c3e fda1 4bbe f8a6 51be
00000160: 1e19 243f 6f22 d63e 24ed 2fbe 0333 8c3e
00000170: 0a71 2dbe 8e74 13bf 3f64 c03e 255c db3e
00000180: b007 febe 1d05 9ebe d91f 8a3d fdbd e83e
00000190: 27d6 3b3e ef2b c33e d62c 063f d2bc 11bf
000001a0: 138f 143f 37a9 9a3e c190 643e e635 4cbe
000001b0: 9576 6fbe d2ad 07be 2361 7dbe 88e1 90bd
000001c0: fae8 2fbe c1ba e33e 84b8 04bf b720 a73e
000001d0: 5a56 323f dd31 2abd 4b08 203f 12f0 473e
000001e0: b671 033f 1598 093f 6548 183e 11fe 5e3e
000001f0: b267 d43e af88 6ebe 821e 80be 51d7 61be
00000200: 6cf4 fcbd bade 97be e89f dcbd 90ae 723e
00000210: 9274 0f3f 2b48 133f 8c8b c53e 78ee be3e
00000220: 4614 47be 5575 6cbd aa1d edbc 3dc1 383f
00000230: 1664 85bd 5cd8 883e 1015 103f dd2e 153f
00000240: 1422 373e 1cd6 853e 21de a03e 9a08 94be
00000250: 24d6 743e 3276 38be 6e81 44be 2133 133f
00000260: 0ee1 20be b6fb 313f a5f4 113f 58f6 12bf
00000270: 8728 95be 7bac 1cbe 662a 223f bf17 993e
00000280: c07b e9bd 1c7e 5cbe 2326 05be 4411 01be
00000290: b333 1f3e 8d71 623d b3e2 5f3e d4de 64be
000002a0: c80e f53e 005f 11be 4f95 39be 3116 ddbe
000002b0: d53a 39be ca8b 0fbe e907 02bf a348 d4bc
000002c0: 2371 ecbe e240 a53e 60ba b43e cd19 463f
000002d0: b219 273f c2d9 ac3e 9861 8e3e 9822 813d
000002e0: 93d4 903e 3c8e ecbe 6136 6a3f d7f5 a83e
000002f0: b81e 9abe a971 0e3f f6fe 7d3f bd1c 793e
00000300: fbb0 573f e9bc 073f a206 2bbe e121 2d3f
00000310: fb3d c7bd 7857 333f 50fd 473e 3221 d7be
00000320: 2143 5dbe 5074 c7be 8f8e 033e 7189 c7be
00000330: b145 c9be 2637 983e 4c4f 2f3f 6851 43be
00000340: 9953 d6bd c1cf 47be 8ee0 babd f7d4 04be
00000350: aa76 f03e 8ede 5f3f 1331 b33d 0818 03bc
00000360: 2d45 c3be 80b7 483e d08e f33e 6452 05be
00000370: f137 1c3f 0315 bcbd 470c f83e 1032 81bc
00000380: 858a d0bd 1be5 183f 023f d6be 1522 a43e
00000390: c5fa 513e b8a0 fe3e df24 253f a434 3bbd
000003a0: 4188 75be 0621 483f acf7 c4be 6f22 5fbd
000003b0: 036f c6be bfdf de3e 5b0a 313f ebe4 763f
000003c0: 220f e6bd c6b4 a93e c20d 243e ea9b a9bd
000003d0: 5086 a8be d133 363f 966b 7ebe 5983 543e
000003e0: 3e15 0bbe 3865 b63e ae6d 92be 39c8 6f3e
000003f0: 562a 0bbe e916 68be fd6a 0b3f 840f ea3e

l1.bias f4 [8]
0.63188726 0.57411903 0.4617658 1.1287969 0.38700384 0.9975012 0.5107313 0.62733054
00000000: 5dc3 213f 77f9 123f 916c ec3e 6b7c 903f
00000010: 5e25 c63e 3d5c 7f3f 49bf 023f bc98 203f

l2.weight f4 [8, 8]
-1.299337 1.9331301 -0.15394169 1.1824949 1.4477651 1.1455598 -0.17821656 -0.15208867
-0.3039317 0.2884901 -0.19354178 -0.32649758 0.13792884 0.15171424 -0.34835634 -0.20127717
1.67028 0.2691453 -0.6314232 0.76229155 0.03834364 1.4239248 -0.8050839 -0.85719
1.2147651 0.23671985 2.01233 0.07401205 1.5240169 -0.13694538 1.6151061 0.13858514
0.6357738 -0.5500555 -0.12199976 1.5577267 -1.8224254 0.83824855 0.106175736 -0.5232369
0.118952274 0.88894117 0.002770914 0.46950784 1.1338428 -0.36662847 1.6481614 -0.29499838
-0.31950533 0.060088962 0.33445844 0.0731636 -0.15503082 -0.034980565 -0.13202408 -0.29137266
-0.77047193 -0.29573572 1.3408754 0.029387439 -0.025425702 -0.5484648 0.70825195 1.7367663
00000000: ad50 a6bf cf70 f73f e4a2 1dbe fe5b 973f
00000010: 5e50 b93f b4a1 923f 677e 36be 22bd 1bbe
00000020: f09c 9bbe f9b4 933e d12f 46be b12a a7be
00000030: 383d 0d3e fa5a 1b3e c35b b2be 9a1b 4ebe
00000040: bccb d53f 6acd 893e f3a4 21bf 8a25 433f
00000050: 380e 1d3d 2b43 b63f fa19 4ebf ce70 5bbf
00000060: 6c7d 9b3f b066 723e 04ca 0040 a193 973d
00000070: fc12 c33f 693b 0cbe ccbb ce3f 43e9 0d3e
00000080: 12c2 223f 70d0 0cbf 03db f9bd 9763 c73f
00000090: 3c45 e9bf 7597 563f aa72 d93d daf2 05bf
000000a0: 409d f33d a691 633f 3998 353b 5563 f03e
000000b0: c321 913f bab6 bbbe f4f6 d23f 070a 97be
000000c0: 3496 a3be d81f 763d 233e ab3e ccd6 953d
000000d0: 66c0 1ebe c847 0fbd 5231 07be cc2e 95be
000000e0: a63d 45bf ac6a 97be cea1 ab3f edbd f03c
000000f0: 9049 d0bc 3068 0cbf 0050 353f 5c4e de3f

l2.bias f4 [8]
0.21925882 -0.14352106 0.57380956 -0.57895833 0.93823403 0.14341456 -0.26850086 0.7681623
00000000: 6285 603e 2ff7 12be 2fe5 123f 9d36 14bf
00000010: 1b30 703f 44db 123e f278 89be 49a6 443f

l3.weight f4 [7, 8]
-0.9020764 0.26287648 -1.1381743 0.73453325 -1.0706795 -1.2911594 -0.3049633 0.038343348
-0.43063012 0.16345146 -0.8407617 -1.5336401 -0.36469606 -0.614886 0.0915851 0.9375992
-1.55709 -0.24852449 -0.3588951 0.6049538 0.62541705 0.4824992 0.22854295 -0.5320033
0.9203291 0.33505628 0.31423005 -1.6050903 0.70384485 -0.22978735 0.029958874 -1.5310774
-1.4748961 0.08615959 1.2174346 -0.6078658 0.824791 -0.46048543 -0.011065155 -1.4982806
0.707195 0.13309288 -1.6069553 0.3061699 -1.1075939 0.4545358 -0.18892409 -0.36911508
0.2370346 0.14134058 0.39578077 0.6164378 -0.64542776 0.27686962 -0.12993515 -1.9280144
00000000: 7bee 66bf bf97 863e b2af 91bf 5f0a 3c3f
00000010: 070c 89bf b644 a5bf 2624 9cbe ea0d 1d3d
00000020: 8d7b dcbe d25f 273e 293c 57bf 524e c4bf
00000030: 71b9 babe 2b69 1dbf f890 bb3d 8006 703f
00000040: ba4e c7bf 347d 7ebe 19c1 b7be 41de 1a3f
00000050: 551b 203f 230a f73e 2a07 6a3e 5e31 08bf
00000060: b09a 6b3f 7f8c ab3e c3e2 a03e 9973 cdbf
00000070: 2d2f 343f 604d 6bbe 506c f53c 58fa c3bf
00000080: 65c9 bcbf 7074 b03d e6d4 9b3f 189d 1bbf
00000090: 8125 533f bfc4 ebbe a04a 35bc a9c7 bfbf
000000a0: bb0a 353f 8049 083e b6b0 cdbf 4dc2 9c3e
000000b0: a3c5 8dbf ebb8 e83e 5175 41be a7fc bcbe
000000c0: 33b9 723e 96bb 103e c7a3 ca3e dece 1d3f
000000d0: c13a 25bf dbc1 8d3e b80d 05be 2dc9 f6bf

l3.bias f4 [7]
-0.26754016 0.3566755 0.060571026 0.16767916 0.40644935 -0.05818539 -0.54859537
00000000: 06fb 88be 2c9e b63e 5319 783d 16b4 2b3e
00000010: 211a d03e ce53 6ebd bf70 0cbf
